3 AI Training for hot-word detetction/converted_model.tflite (tflite, 42960 bytes, 4 tensors)

sequential/conv_layer1/Conv2D i1 [4, 3, 3, 1]
0	0x72	114
1	0x67	103
2	0x6d	109
3	0x20	32
4	0x24	36
5	0x35	53
6	0x81	-127
7	0x84	-124
8	0xbf	-65
9	0x75	117
10	0xe2	-30
11	0xc1	-63
12	0x7f	127
13	0xce	-50
14	0xc0	-64
15	0x7c	124
16	0xdb	-37
17	0xab	-85
18	0x72	114
19	0x78	120
20	0x7f	127
21	0x46	70
22	0x53	83
23	0x6d	109
24	0x54	84
25	0x55	85
26	0x7a	122
27	0xcc	-52
28	0xce	-50
29	0xa3	-93
30	0x3a	58
31	0x2d	45
32	0xf0	-16
33	0x7f	127
34	0x75	117
35	0x45	69

sequential/conv_layer2/Conv2D i1 [4, 3, 3, 4]
0	0x26	38
1	0xb8	-72
2	0x4d	77
3	0xe1	-31
4	0xf0	-16
5	0x1c	28
6	0x39	57
7	0x04	4
8	0xe3	-29
9	0xf8	-8
10	0xe7	-25
11	0xeb	-21
12	0x17	23
13	0x99	-103
14	0x20	32
15	0xdd	-35
16	0xf1	-15
17	0x10	16
18	0x2d	45
19	0x01	1
20	0xf3	-13
21	0x08	8
22	0xef	-17
23	0xee	-18
24	0x00	0
25	0x81	-127
26	0x28	40
27	0xe4	-28
28	0xe6	-26
29	0x12	18
30	0x32	50
31	0x0e	14
32	0xed	-19
33	0x15	21
34	0xf8	-8
35	0xf0	-16
36	0xe2	-30
37	0x5d	93
38	0xa3	-93
39	0x42	66
40	0xd2	-46
41	0x21	33
42	0xce	-50
43	0xda	-38
44	0xdf	-33
45	0x13	19
46	0xf1	-15
47	0xdd	-35
48	0xf7	-9
49	0x65	101
50	0xe8	-24
51	0x3c	60
52	0xe7	-25
53	0x39	57
54	0xed	-19
55	0xd1	-47
56	0xdf	-33
57	0x24	36
58	0xf2	-14
59	0xc4	-60
60	0x08	8
61	0x7f	127
62	0xee	-18
63	0x19	25
64	0xeb	-21
65	0x39	57
66	0xcb	-53
67	0xb2	-78
68	0xdd	-35
69	0x1c	28
70	0xcb	-53
71	0xb2	-78
72	0x25	37
73	0x05	5
74	0x7f	127
75	0xde	-34
76	0x1b	27
77	0x11	17
78	0x41	65
79	0xe9	-23
80	0x06	6
81	0x19	25
82	0xef	-17
83	0xf4	-12
84	0x1c	28
85	0x00	0
86	0x1e	30
87	0xdc	-36
88	0x1a	26
89	0x08	8
90	0xfc	-4
91	0xea	-22
92	0x13	19
93	0x05	5
94	0xf3	-13
95	0xeb	-21
96	0x2f	47
97	0xf2	-14
98	0xa9	-87
99	0xc0	-64
100	0x2d	45
101	0xf5	-11
102	0xbe	-66
103	0xd9	-39
104	0x22	34
105	0xe9	-23
106	0xd8	-40
107	0xee	-18
108	0x0d	13
109	0xe9	-23
110	0x91	-111
111	0x24	36
112	0x21	33
113	0xdd	-35
114	0xd4	-44
115	0x28	40
116	0x26	38
117	0xf0	-16
118	0x19	25
119	0x2d	45
120	0x08	8
121	0xdf	-33
122	0xec	-20
123	0x3e	62
124	0x1d	29
125	0xee	-18
126	0xcb	-53
127	0x34	52
128	0x24	36
129	0xf9	-7
130	0xd2	-46
131	0x20	32
132	0x2f	47
133	0xdb	-37
134	0x1f	31
135	0x61	97
136	0x1e	30
137	0x08	8
138	0xf7	-9
139	0x7f	127
140	0x10	16
141	0x0f	15
142	0xdc	-36
143	0x68	104

sequential/hidden_layer1/MatMul i1 [40, 960] scale=0.0014926922 zero_point=0
0	0x00	0.0
1	0x00	0.0
2	0x00	0.0
3	0x00	0.0
4	0x00	0.0
5	0x00	0.0
6	0x00	0.0
7	0x00	0.0
8	0x00	0.0
9	0x00	0.0
10	0x00	0.0
11	0x00	0.0
12	0x00	0.0
13	0x00	0.0
14	0x00	0.0
15	0x00	0.0
16	0x00	0.0
17	0x00	0.0
18	0x00	0.0
19	0x00	0.0
20	0x00	0.0
21	0x00	0.0
22	0x00	0.0
23	0x00	0.0
24	0x00	0.0
25	0x00	0.0
26	0x00	0.0
27	0x00	0.0
28	0x00	0.0
29	0x00	0.0
30	0x00	0.0
31	0x00	0.0
32	0x00	0.0
33	0x00	0.0
34	0x00	0.0
35	0x00	0.0
36	0x00	0.0
37	0x00	0.0
38	0x00	0.0
39	0x00	0.0
40	0x00	0.0
41	0x00	0.0
42	0x00	0.0
43	0x00	0.0
44	0x00	0.0
45	0x00	0.0
46	0x00	0.0
47	0x00	0.0
48	0x00	0.0
49	0x00	0.0
50	0x00	0.0
51	0x00	0.0
52	0x00	0.0
53	0x00	0.0
54	0x00	0.0
55	0x00	0.0
56	0x00	0.0
57	0x00	0.0
58	0x00	0.0
59	0x00	0.0
60	0x00	0.0
61	0x00	0.0
62	0x00	0.0
63	0x00	0.0
64	0x00	0.0
65	0x00	0.0
66	0x00	0.0
67	0x00	0.0
68	0x00	0.0
69	0x00	0.0
70	0x00	0.0
71	0x00	0.0
72	0x00	0.0
73	0x00	0.0
74	0x00	0.0
75	0x00	0.0
76	0x00	0.0
77	0x00	0.0
78	0x00	0.0
79	0x00	0.0
80	0x00	0.0
81	0x00	0.0
82	0x00	0.0
83	0x00	0.0
84	0x00	0.0
85	0x00	0.0
86	0x00	0.0
87	0x00	0.0
88	0x00	0.0
89	0x00	0.0
90	0x00	0.0
91	0x00	0.0
92	0x00	0.0
93	0x00	0.0
94	0x00	0.0
95	0x00	0.0
96	0x00	0.0
97	0x00	0.0
98	0x00	0.0
99	0x00	0.0
100	0x00	0.0
101	0x00	0.0
102	0x00	0.0
103	0x00	0.0
104	0x00	0.0
105	0x00	0.0
106	0x00	0.0
107	0x00	0.0
108	0x00	0.0
109	0x00	0.0
110	0x00	0.0
111	0x00	0.0
112	0x00	0.0
113	0x00	0.0
114	0x00	0.0
115	0x00	0.0
116	0x00	0.0
117	0x00	0.0
118	0x00	0.0
119	0x00	0.0
120	0x00	0.0
121	0x00	0.0
122	0x00	0.0
123	0x00	0.0
124	0x00	0.0
125	0x00	0.0
126	0x00	0.0
127	0x00	0.0
128	0x00	0.0
129	0x00	0.0
130	0x00	0.0
131	0x00	0.0
132	0x00	0.0
133	0x00	0.0
134	0x00	0.0
135	0x00	0.0
136	0x00	0.0
137	0x00	0.0
138	0x00	0.0
139	0x00	0.0
140	0x00	0.0
141	0x00	0.0
142	0x00	0.0
143	0x00	0.0
144	0x00	0.0
145	0x00	0.0
146	0x00	0.0
147	0x00	0.0
148	0x00	0.0
149	0x00	0.0
150	0x00	0.0
151	0x00	0.0
152	0x00	0.0
153	0x00	0.0
154	0x00	0.0
155	0x00	0.0
156	0x00	0.0
157	0x00	0.0
158	0x00	0.0
159	0x00	0.0
160	0x00	0.0
161	0x00	0.0
162	0x00	0.0
163	0x00	0.0
164	0x00	0.0
165	0x00	0.0
166	0x00	0.0
167	0x00	0.0
168	0x00	0.0
169	0x00	0.0
170	0x00	0.0
171	0x00	0.0
172	0x00	0.0
173	0x00	0.0
174	0x00	0.0
175	0x00	0.0
176	0x00	0.0
177	0x00	0.0
178	0x00	0.0
179	0x00	0.0
180	0x00	0.0
181	0x00	0.0
182	0x00	0.0
183	0x00	0.0
184	0x00	0.0
185	0x00	0.0
186	0x00	0.0
187	0x00	0.0
188	0x00	0.0
189	0x00	0.0
190	0x00	0.0
191	0x00	0.0
192	0x00	0.0
193	0x00	0.0
194	0x00	0.0
195	0x00	0.0
196	0x00	0.0
197	0x00	0.0
198	0x00	0.0
199	0x00	0.0
200	0x00	0.0
201	0x00	0.0
202	0x00	0.0
203	0x00	0.0
204	0x00	0.0
205	0x00	0.0
206	0x00	0.0
207	0x00	0.0
208	0x00	0.0
209	0x00	0.0
210	0x00	0.0
211	0x00	0.0
212	0x00	0.0
213	0x00	0.0
214	0x00	0.0
215	0x00	0.0
216	0x00	0.0
217	0x00	0.0
218	0x00	0.0
219	0x00	0.0
220	0x00	0.0
221	0x00	0.0
222	0x00	0.0
223	0x00	0.0
224	0x00	0.0
225	0x00	0.0
226	0x00	0.0
227	0x00	0.0
228	0x00	0.0
229	0x00	0.0
230	0x00	0.0
231	0x00	0.0
232	0x00	0.0
233	0x00	0.0
234	0x00	0.0
235	0x00	0.0
236	0x00	0.0
237	0x00	0.0
238	0x00	0.0
239	0x00	0.0
240	0x00	0.0
241	0x00	0.0
242	0x00	0.0
243	0x00	0.0
244	0x00	0.0
245	0x00	0.0
246	0x00	0.0
247	0x00	0.0
248	0x00	0.0
249	0x00	0.0
250	0x00	0.0
251	0x00	0.0
252	0x00	0.0
253	0x00	0.0
254	0x00	0.0
255	0x00	0.0

sequential/output/MatMul i1 [1, 40] scale=0.007391384 zero_point=0
0	0x00	0.0
1	0x00	0.0
2	0x00	0.0
3	0x00	0.0
4	0x00	0.0
5	0x74	0.85740054
6	0x00	0.0
7	0x00	0.0
8	0xb7	-0.53957105
9	0x00	0.0
10	0x00	0.0
11	0x00	0.0
12	0x00	0.0
13	0x62	0.72435564
14	0x00	0.0
15	0x00	0.0
16	0xaf	-0.5987021
17	0x00	0.0
18	0x00	0.0
19	0xb6	-0.5469624
20	0x00	0.0
21	0x00	0.0
22	0xcf	-0.36217782
23	0x00	0.0
24	0x7f	0.93870574
25	0x00	0.0
26	0x00	0.0
27	0x00	0.0
28	0x00	0.0
29	0x00	0.0
30	0xa3	-0.6873987
31	0x00	0.0
32	0x00	0.0
33	0x00	0.0
34	0x00	0.0
35	0x00	0.0
36	0x00	0.0
37	0x00	0.0
38	0x00	0.0
39	0xa6	-0.66522455
