3 AI Training for hot-word detetction/converted_model.tflite (tflite, 42960 bytes, 4 tensors)

sequential/conv_layer1/Conv2D i1 [4, 3, 3, 1]
67 127 82 39 115 78 31 114
101 -113 -69 19 -88 -53 14 -127
-69 15 96 84 -61 98 48 -103
91 16 -127 -109 -100 -84 47 -20
-13 119 122 127
00000000: 437f 5227 734e 1f72 658f bb13 a8cb 0e81
00000010: bb0f 6054 c362 3099 5b10 8193 9cac 2fec
00000020: f377 7a7f

sequential/conv_layer2/Conv2D i1 [4, 3, 3, 4]
37 -9 22 -4 -100 -22 -17 19
127 10 -26 40 46 -26 17 -10
-107 -44 3 -28 107 1 -61 -13
37 -40 23 -11 -103 -52 19 -23
85 11 -70 -16 77 -19 40 28
-52 -18 -16 72 -81 20 -28 58
-37 -19 16 5 25 -24 -47 50
26 -11 -3 50 -127 -1 -1 27
14 -5 -56 54 38 -28 10 68
-99 -9 -26 24 -79 24 -45 25
-37 2 -23 36 -7 -17 -32 30
2 5 -33 12 -22 -22 -15 12
127 -23 -24 85 74 -11 -7 57
2 -44 -8 39 -86 -65 41 2
-29 31 -2 -23 -17 24 10 -27
-26 -79 84 14 -3 25 1 -28
8 9 36 -43 -37 -58 127 -24
-22 42 7 -39 12 29 35 -41
00000000: 25f7 16fc 9cea ef13 7f0a e628 2ee6 11f6
00000010: 95d4 03e4 6b01 c3f3 25d8 17f5 99cc 13e9
00000020: 550b baf0 4ded 281c ccee f048 af14 e43a
00000030: dbed 1005 19e8 d132 1af5 fd32 81ff ff1b
00000040: 0efb c836 26e4 0a44 9df7 e618 b118 d319
00000050: db02 e924 f9ef e01e 0205 df0c eaea f10c
00000060: 7fe9 e855 4af5 f939 02d4 f827 aabf 2902
00000070: e31f fee9 ef18 0ae5 e6b1 540e fd19 01e4
00000080: 0809 24d5 dbc6 7fe8 ea2a 07d9 0c1d 23d7

sequential/hidden_layer1/MatMul i1 [40, 960] scale=0.0019401193 zero_point=0
0.0 0.0 0.0 0.0 0.0 0.0 0.0 0.0
0.0 0.0 0.0 0.0 0.0 0.0 0.0 0.0
0.0 0.0 0.0 0.0 0.0 0.0 0.0 0.0
0.0 0.0 0.0 0.0 0.0 0.0 0.0 0.0
0.0 0.0 0.0 0.0 0.0 0.0 0.0 0.0
0.0 0.0 0.0 0.0 0.0 0.0 0.0 0.0
0.0 0.0 0.0 0.0 0.0 0.0 0.0 0.0
0.0 0.0 0.0 0.0 0.0 0.0 0.0 0.0
0.0 0.0 0.0 0.0 0.0 0.0 0.0 0.0
0.0 0.0 0.0 0.0 0.0 0.0 0.0 0.0
0.0 0.0 0.0 0.0 0.0 0.0 0.0 0.0
0.0 0.0 0.0 0.0 0.0 0.0 0.0 0.0
0.0 0.0 0.0 0.0 0.0 0.0 0.0 0.0
0.0 0.0 0.0 0.0 0.0 0.0 0.0 0.0
0.0 0.0 0.0 0.0 0.0 0.0 0.0 0.0
0.0 0.0 0.0 0.0 0.0 0.0 0.0 0.0
0.0 0.0 0.0 0.0 0.0 0.0 0.0 0.0
0.0 0.0 0.0 0.0 0.0 0.0 0.0 0.0
0.0 0.0 0.0 0.0 0.0 0.0 0.0 0.0
0.0 0.0 0.0 0.0 0.0 0.0 0.0 0.0
0.0 0.0 0.0 0.0 0.0 0.0 0.0 0.0
0.0 0.0 0.0 0.0 0.0 0.0 0.0 0.0
0.0 0.0 0.0 0.0 0.0 0.0 0.0 0.0
0.0 0.0 0.0 0.0 0.0 0.0 0.0 0.0
0.0 0.0 0.0 0.0 0.0 0.0 0.0 0.0
0.0 0.0 0.0 0.0 0.0 0.0 0.0 0.0
0.0 0.0 0.0 0.0 0.0 0.0 0.0 0.0
0.0 0.0 0.0 0.0 0.0 0.0 0.0 0.0
0.0 0.0 0.0 0.0 0.0 0.0 0.0 0.0
0.0 0.0 0.0 0.0 0.0 0.0 0.0 0.0
0.0 0.0 0.0 0.0 0.0 0.0 0.0 0.0
0.0 0.0 0.0 0.0 0.0 0.0 0.0 0.0
00000000: 0000 0000 0000 0000 0000 0000 0000 0000
00000010: 0000 0000 0000 0000 0000 0000 0000 0000
00000020: 0000 0000 0000 0000 0000 0000 0000 0000
00000030: 0000 0000 0000 0000 0000 0000 0000 0000
00000040: 0000 0000 0000 0000 0000 0000 0000 0000
00000050: 0000 0000 0000 0000 0000 0000 0000 0000
00000060: 0000 0000 0000 0000 0000 0000 0000 0000
00000070: 0000 0000 0000 0000 0000 0000 0000 0000
00000080: 0000 0000 0000 0000 0000 0000 0000 0000
00000090: 0000 0000 0000 0000 0000 0000 0000 0000
000000a0: 0000 0000 0000 0000 0000 0000 0000 0000
000000b0: 0000 0000 0000 0000 0000 0000 0000 0000
000000c0: 0000 0000 0000 0000 0000 0000 0000 0000
000000d0: 0000 0000 0000 0000 0000 0000 0000 0000
000000e0: 0000 0000 0000 0000 0000 0000 0000 0000
000000f0: 0000 0000 0000 0000 0000 0000 0000 0000

sequential/output/MatMul i1 [1, 40] scale=0.0076226196 zero_point=0
0.0 0.0 0.0 0.0 0.0 -0.71652627 -0.52596074 0.0
0.0 0.0 -0.51833814 0.0 -0.33539528 -0.4268667 0.51833814 0.0
0.0 0.0 0.0 0.0 0.0 0.0 0.0 0.0
0.0 0.0 0.9680727 0.0 0.0 0.0 0.0 0.0
0.0 0.0 0.0 0.0 -0.28965956 0.7546393 -0.7470167 -0.5488286
00000000: 0000 0000 00a2 bb00 0000 bc00 d4c8 4400
00000010: 0000 0000 0000 0000 0000 7f00 0000 0000
00000020: 0000 0000 da63 9eb8
